…
    "quant_method": "bitsandbytes"
  },
  "rope_pct": 0.25,
  "rope_theta": 10000,
  "rotary_scaling_factor": 1.0,
  "tie_word_embeddings": false,
  "torch_dtype": "bfloat16",
  "transformers_version": "4.37.0",
  "use_cache": true,
  "use_qkv_bias": true,
  "vocab_size": 100352
}

2024-01-31:19:50:05,871 INFO     [evaluator.py:55] GenerationConfig {
  "bos_token_id": 100257,
  "eos_token_id": 100257
}

2024-01-31:19:50:05,871 INFO     [evaluator.py:56] <bound method Module.parameters of StableLMEpochForCausalLM(
  (model): StableLMEpochModel(
    (embed_tokens): ModulesToSaveWrapper(
      (original_module): Embedding(100352, 2048)
      (modules_to_save): ModuleDict(
        (default): Embedding(100352, 2048)
      )
    )
    (layers): ModuleList(
      (0-23): 24 x DecoderLayer(
        (self_attn): FlashAttention2(
          (q_proj): lora.Linear4bit(
            (base_layer): Linear4bit(in_features=2048, out_features=2048, bias=True)
            (lora_dropout): ModuleDict(
              (default): Dropout(p=0.05, inplace=False)
            )
            (lora_A): ModuleDict(
              (default): Linear(in_features=2048, out_features=32, bias=False)
            )
            (lora_B): ModuleDict(
              (default): Linear(in_features=32, out_features=2048, bias=False)
            )
            (lora_embedding_A): ParameterDict()
            (lora_embedding_B): ParameterDict()
          )
          (k_proj): lora.Linear4bit(
            (base_layer): Linear4bit(in_features=2048, out_features=2048, bias=True)
            (lora_dropout): ModuleDict(
              (default): Dropout(p=0.05, inplace=False)
            )
            (lora_A): ModuleDict(
              (default): Linear(in_features=2048, out_features=32, bias=False)
            )
            (lora_B): ModuleDict(
              (default): Linear(in_features=32, out_features=2048, bias=False)
            )
            (lora_embedding_A): ParameterDict()
            (lora_embedding_B): ParameterDict()
          )
          (v_proj): lora.Linear4bit(
            (base_layer): Linear4bit(in_features=2048, out_features=2048, bias=True)
            (lora_dropout): ModuleDict(
              (default): Dropout(p=0.05, inplace=False)
            )
            (lora_A): ModuleDict(
              (default): Linear(in_features=2048, out_features=32, bias=False)
            )
            (lora_B): ModuleDict(
              (default): Linear(in_features=32, out_features=2048, bias=False)
            )
            (lora_embedding_A): ParameterDict()
            (lora_embedding_B): ParameterDict()
          )
          (o_proj): lora.Linear4bit(
            (base_layer): Linear4bit(in_features=2048, out_features=2048, bias=False)
            (lora_dropout): ModuleDict(
              (default): Dropout(p=0.05, inplace=False)
            )
            (lora_A): ModuleDict(
              (default): Linear(in_features=2048, out_features=32, bias=False)
            )
            (lora_B): ModuleDict(
              (default): Linear(in_features=32, out_features=2048, bias=False)
            )
            (lora_embedding_A): ParameterDict()
            (lora_embedding_B): ParameterDict()
          )
          (rotary_emb): RotaryEmbedding()
        )
        (mlp): MLP(
          (gate_proj): lora.Linear4bit(
            (base_layer): Linear4bit(in_features=2048, out_features=5632, bias=False)
            (lora_dropout): ModuleDict(
              (default): Dropout(p=0.05, inplace=False)
            )
            (lora_A): ModuleDict(
              (default): Linear(in_features=2048, out_features=32, bias=False)
            )
            (lora_B): ModuleDict(
              (default): Linear(in_features=32, out_features=5632, bias=False)
            )
            (lora_embedding_A): ParameterDict()
            (lora_embedding_B): ParameterDict()
          )
          (up_proj): lora.Linear4bit(
            (base_layer): Linear4bit(in_features=2048, out_features=5632, bias=False)
            (lora_dropout): ModuleDict(
              (default): Dropout(p=0.05, inplace=False)
            )
            (lora_A): ModuleDict(
              (default): Linear(in_features=2048, out_features=32, bias=False)
            )
            (lora_B): ModuleDict(
              (default): Linear(in_features=32, out_features=5632, bias=False)
            )
            (lora_embedding_A): ParameterDict()
            (lora_embedding_B): ParameterDict()
          )
          (down_proj): lora.Linear4bit(
            (base_layer): Linear4bit(in_features=5632, out_features=2048, bias=False)
            (lora_dropout): ModuleDict(
              (default): Dropout(p=0.05, inplace=False)
            )
            (lora_A): ModuleDict(
              (default): Linear(in_features=5632, out_features=32, bias=False)
            )
            (lora_B): ModuleDict(
              (default): Linear(in_features=32, out_features=2048, bias=False)
            )
            (lora_embedding_A): ParameterDict()
            (lora_embedding_B): ParameterDict()
          )
          (act_fn): SiLU()
        )
        (input_layernorm): LayerNorm((2048,), eps=1e-05, elementwise_affine=True)
        (post_attention_layernorm): LayerNorm((2048,), eps=1e-05, elementwise_affine=True)
      )
    )
    (norm): LayerNorm((2048,), eps=1e-05, elementwise_affine=True)
  )
  (lm_head): ModulesToSaveWrapper(
    (original_module): Linear(in_features=2048, out_features=100352, bias=False)
    (modules_to_save): ModuleDict(
      (default): Linear(in_features=2048, out_features=100352, bias=False)
    )
  )
)>
2024-01-31:19:50:05,878 INFO     [evaluator.py:57] {% for message in messages %}
{% if message['role'] == 'user' %}
{{ '<|user|>
' + message['content'] + eos_token }}
{% elif message['role'] == 'system' %}
{{ '<|system|>
' + message['content'] + eos_token }}
{% elif message['role'] == 'assistant' %}
{{ '<|assistant|>
'  + message['content'] + eos_token }}
…
