…
  "num_heads": 32,
  "num_hidden_layers": 24,
  "num_key_value_heads": 32,
  "rope_pct": 0.25,
  "rope_theta": 10000,
  "rotary_scaling_factor": 1.0,
  "tie_word_embeddings": false,
  "torch_dtype": "bfloat16",
  "transformers_version": "4.37.0",
  "use_cache": false,
  "use_qkv_bias": true,
  "vocab_size": 100352
}

2024-02-02:03:49:24,439 INFO     [evaluator.py:58] GenerationConfig {
  "bos_token_id": 100257,
  "eos_token_id": 100257
}

2024-02-02:03:49:24,439 INFO     [evaluator.py:59] <bound method Module.parameters of StableLMEpochForCausalLM(
  (model): StableLMEpochModel(
    (embed_tokens): Embedding(100352, 2048)
    (layers): ModuleList(
      (0-23): 24 x DecoderLayer(
        (self_attn): FlashAttention2(
          (q_proj): Linear(in_features=2048, out_features=2048, bias=True)
          (k_proj): Linear(in_features=2048, out_features=2048, bias=True)
          (v_proj): Linear(in_features=2048, out_features=2048, bias=True)
          (o_proj): Linear(in_features=2048, out_features=2048, bias=False)
          (rotary_emb): RotaryEmbedding()
        )
        (mlp): MLP(
          (gate_proj): Linear(in_features=2048, out_features=5632, bias=False)
          (up_proj): Linear(in_features=2048, out_features=5632, bias=False)
          (down_proj): Linear(in_features=5632, out_features=2048, bias=False)
          (act_fn): SiLU()
        )
        (input_layernorm): LayerNorm((2048,), eps=1e-05, elementwise_affine=True)
        (post_attention_layernorm): LayerNorm((2048,), eps=1e-05, elementwise_affine=True)
      )
    )
    (norm): LayerNorm((2048,), eps=1e-05, elementwise_affine=True)
  )
  (lm_head): Linear(in_features=2048, out_features=100352, bias=False)
)>
2024-02-02:03:49:24,440 INFO     [evaluator.py:60] {% for message in messages %}
{% if message['role'] == 'user' %}
{{ '<|user|>
' + message['content'] + eos_token }}
{% elif message['role'] == 'system' %}
{{ '<|system|>
' + message['content'] + eos_token }}
{% elif message['role'] == 'assistant' %}
{{ '<|assistant|>
'  + message['content'] + eos_token }}
…
